norman_mww.tflite (tflite, 63544 bytes, 18 tensors)

tfl.pseudo_qconst1 i1 [1, 2368] scale=0.005528464 zero_point=0
-0.2930086 -0.20455317 0.02764232 0.3538217 -0.15479699 0.121626206 -0.3206509 -0.30959398
-0.70211494 -0.14374006 0.022113856 -0.17138238 -0.25430936 -0.049756177 -0.28748012 0.049756177
0.011056928 0.0 -0.09951235 0.07187003 -0.38699248 0.005528464 0.1382116 0.28195167
-0.30406553 -0.24878088 0.1382116 0.30406553 0.09951235 0.09951235 -0.3261794 -0.066341564
0.10504082 0.18243931 -0.17138238 -0.22666702 -0.12715468 0.066341564 -0.4146348 0.060813103
0.033170782 -0.18243931 -0.060813103 0.05528464 -0.005528464 -0.23772395 -0.14374006 -0.3206509
-0.005528464 -0.033170782 -0.02764232 -0.033170782 -0.12715468 -0.11056928 -0.33170784 -0.6247164
-0.34276477 -0.1990247 0.016585391 -0.04422771 0.121626206 -0.15479699 0.3980494 0.18243931
-0.19349624 -0.13268313 0.09398389 0.13268313 0.121626206 -0.04422771 -0.038699247 -0.077398494
-0.08292696 -0.05528464 -0.005528464 0.033170782 0.016585391 0.033170782 -0.016585391 0.07187003
0.033170782 0.049756177 -0.011056928 0.049756177 -0.11609774 0.066341564 0.0 0.05528464
-0.10504082 -0.07187003 -0.07187003 0.21008164 0.11609774 0.005528464 -0.005528464 -0.049756177
0.07187003 -0.016585391 -0.14926852 -0.12715468 -0.033170782 0.09951235 0.07187003 -0.022113856
0.022113856 -0.11609774 0.0 0.038699247 -0.077398494 -0.060813103 -0.022113856 -0.23219548
-0.08292696 0.016585391 -0.04422771 -0.04422771 -0.09398389 0.05528464 -0.05528464 -0.18243931
-0.121626206 -0.077398494 0.033170782 0.11609774 0.07187003 -0.077398494 0.09398389 0.060813103
-0.066341564 -0.05528464 0.08292696 0.049756177 0.09951235 -0.016585391 0.077398494 -0.08292696
0.011056928 0.033170782 -0.033170782 -0.022113856 0.049756177 -0.016585391 -0.04422771 -0.038699247
0.04422771 -0.02764232 -0.022113856 0.033170782 -0.08292696 -0.022113856 -0.04422771 -0.022113856
-0.14374006 -0.033170782 -0.077398494 0.077398494 0.011056928 -0.08292696 0.022113856 0.016585391
0.05528464 -0.038699247 -0.14374006 0.005528464 -0.05528464 0.13268313 0.016585391 -0.08845542
0.0 -0.049756177 0.02764232 0.09398389 -0.038699247 -0.016585391 -0.022113856 -0.19349624
-0.049756177 0.016585391 -0.04422771 -0.011056928 -0.038699247 -0.05528464 0.016585391 -0.07187003
-0.02764232 -0.08292696 -0.04422771 0.12715468 0.08292696 -0.02764232 0.04422771 -0.011056928
0.033170782 -0.049756177 0.08845542 0.066341564 -0.033170782 -0.04422771 0.060813103 -0.08845542
-0.09951235 0.0 0.011056928 -0.060813103 0.0 -0.04422771 -0.12715468 -0.038699247
0.077398494 -0.022113856 -0.005528464 -0.038699247 0.0 0.022113856 0.022113856 0.005528464
-0.08845542 0.09398389 -0.07187003 0.1382116 0.005528464 -0.077398494 -0.033170782 -0.011056928
-0.005528464 0.022113856 -0.17138238 0.011056928 -0.077398494 0.12715468 -0.08292696 -0.060813103
0.022113856 -0.09951235 -0.05528464 0.066341564 -0.02764232 -0.016585391 -0.022113856 -0.16032545
-0.033170782 -0.011056928 -0.016585391 0.011056928 -0.005528464 -0.02764232 -0.09951235 -0.14926852
-0.066341564 0.005528464 0.005528464 0.1382116 0.08292696 -0.038699247 0.038699247 -0.077398494
00000000: cbdb 0540 e416 c6c8 81e6 04e1 d2f7 cc09
00000010: 0200 ee0d ba01 1933 c9d3 1937 1212 c5f4
00000020: 1321 e1d7 e90c b50b 06df f50a ffd5 e6c6
00000030: fffa fbfa e9ec c48f c2dc 03f8 16e4 4821
00000040: dde8 1118 16f8 f9f2 f1f6 ff06 0306 fd0d
00000050: 0609 fe09 eb0c 000a edf3 f326 1501 fff7
00000060: 0dfd e5e9 fa12 0dfc 04eb 0007 f2f5 fcd6
00000070: f103 f8f8 ef0a f6df eaf2 0615 0df2 110b
00000080: f4f6 0f09 12fd 0ef1 0206 fafc 09fd f8f9
00000090: 08fb fc06 f1fc f8fc e6fa f20e 02f1 0403
000000a0: 0af9 e601 f618 03f0 00f7 0511 f9fd fcdd
000000b0: f703 f8fe f9f6 03f3 fbf1 f817 0ffb 08fe
000000c0: 06f7 100c faf8 0bf0 ee00 02f5 00f8 e9f9
000000d0: 0efc fff9 0004 0401 f011 f319 01f2 fafe
000000e0: ff04 e102 f217 f1f5 04ee f60c fbfd fce3
000000f0: fafe fd02 fffb eee5 f401 0119 0ff9 07f2

tfl.pseudo_qconst3 i1 [64, 1, 1, 64]
94 -57 1 51 22 10 15 -40
29 32 -24 17 103 14 12 95
-85 61 -91 19 -73 66 30 30
19 90 22 14 26 94 28 11
-26 39 -20 -34 40 -47 4 -35
-66 1 79 -45 127 23 -43 -14
53 -40 -37 -44 24 -6 62 44
-93 72 8 -8 32 -54 93 -3
105 -11 -20 58 90 14 -75 -69
61 67 -31 -21 110 -6 25 33
36 30 -86 127 -11 -21 61 -38
-16 66 -7 -20 -45 -24 33 -11
61 19 31 12 -10 30 -50 57
-1 -10 -13 28 -6 -98 -5 -21
-3 -19 -33 39 96 15 -36 -18
-84 25 47 -26 43 -50 -22 -41
75 12 24 8 27 -65 63 36
-127 -25 -34 -20 15 4 6 24
63 8 -29 -6 8 -16 2 13
-13 -45 -80 32 30 -20 -83 9
-6 21 -81 7 -30 80 48 71
-44 27 11 68 54 -12 41 -9
47 59 72 107 43 -110 -79 21
-10 35 72 -117 35 43 -29 -32
15 -22 56 -65 -66 -34 20 -30
-44 -72 -60 -24 -24 -5 -4 44
-33 99 63 55 -19 -50 -32 -5
-10 19 -48 32 -76 18 71 18
37 54 23 16 47 -18 -56 -57
41 -127 97 -46 34 -30 -47 -34
-32 -33 53 -57 111 53 46 33
-3 17 12 -25 -12 -20 -41 -26
00000000: 5ec7 0133 160a 0fd8 1d20 e811 670e 0c5f
00000010: ab3d a513 b742 1e1e 135a 160e 1a5e 1c0b
00000020: e627 ecde 28d1 04dd be01 4fd3 7f17 d5f2
00000030: 35d8 dbd4 18fa 3e2c a348 08f8 20ca 5dfd
00000040: 69f5 ec3a 5a0e b5bb 3d43 e1eb 6efa 1921
00000050: 241e aa7f f5eb 3dda f042 f9ec d3e8 21f5
00000060: 3d13 1f0c f61e ce39 fff6 f31c fa9e fbeb
00000070: fded df27 600f dcee ac19 2fe6 2bce ead7
00000080: 4b0c 1808 1bbf 3f24 81e7 deec 0f04 0618
00000090: 3f08 e3fa 08f0 020d f3d3 b020 1eec ad09
000000a0: fa15 af07 e250 3047 d41b 0b44 36f4 29f7
000000b0: 2f3b 486b 2b92 b115 f623 488b 232b e3e0
000000c0: 0fea 38bf bede 14e2 d4b8 c4e8 e8fb fc2c
000000d0: df63 3f37 edce e0fb f613 d020 b412 4712
000000e0: 2536 1710 2fee c8c7 2981 61d2 22e2 d1de
000000f0: e0df 35c7 6f35 2e21 fd11 0ce7 f4ec d7e6

tfl.pseudo_qconst5 i1 [1, 23, 1, 64]
-34 39 22 -127 -5 15 36 34
104 -127 -15 49 -127 72 -32 12
-18 11 -127 -127 13 -5 -19 72
-20 -127 127 -127 7 12 127 -30
-120 -9 37 39 127 126 -42 89
25 -127 4 -6 -45 -70 -18 -37
-64 -80 -23 50 -127 8 106 -8
85 98 -9 -20 64 -11 -15 62
-38 33 11 -126 7 4 26 28
58 -66 -23 74 -65 42 13 34
11 7 -51 -55 28 13 -8 49
-1 -59 85 -83 0 -41 89 28
-88 -5 10 30 74 80 -29 83
17 -45 27 -24 -79 -72 3 -1
23 -40 6 9 -26 6 44 -6
34 46 -7 -13 19 -58 -9 11
-34 30 11 -120 36 10 29 30
67 -31 -44 99 -42 91 -6 5
41 9 -33 -61 23 -3 -3 -30
-1 -45 52 -34 -1 -15 43 39
-127 -1 -2 -2 62 76 -31 25
9 -14 28 -23 -65 -33 -1 7
105 -12 -28 16 -16 -25 19 -3
26 27 5 26 37 -25 13 17
-8 0 -39 -66 102 -9 21 16
78 -8 -24 119 -31 50 -39 11
-6 6 2 -71 -18 -13 11 -4
24 -53 44 -39 -6 -29 46 9
-82 -30 -27 2 59 59 -19 41
-1 -3 38 -37 4 -43 6 -9
85 1 6 2 -9 -24 22 -15
14 17 9 45 69 -24 -10 -14
00000000: de27 1681 fb0f 2422 6881 f131 8148 e00c
00000010: ee0b 8181 0dfb ed48 ec81 7f81 070c 7fe2
00000020: 88f7 2527 7f7e d659 1981 04fa d3ba eedb
00000030: c0b0 e932 8108 6af8 5562 f7ec 40f5 f13e
00000040: da21 0b82 0704 1a1c 3abe e94a bf2a 0d22
00000050: 0b07 cdc9 1c0d f831 ffc5 55ad 00d7 591c
00000060: a8fb 0a1e 4a50 e353 11d3 1be8 b1b8 03ff
00000070: 17d8 0609 e606 2cfa 222e f9f3 13c6 f70b
00000080: de1e 0b88 240a 1d1e 43e1 d463 d65b fa05
00000090: 2909 dfc3 17fd fde2 ffd3 34de fff1 2b27
000000a0: 81ff fefe 3e4c e119 09f2 1ce9 bfdf ff07
000000b0: 69f4 e410 f0e7 13fd 1a1b 051a 25e7 0d11
000000c0: f800 d9be 66f7 1510 4ef8 e877 e132 d90b
000000d0: fa06 02b9 eef3 0bfc 18cb 2cd9 fae3 2e09
000000e0: aee2 e502 3b3b ed29 fffd 26db 04d5 06f7
000000f0: 5501 0602 f7e8 16f1 0e11 092d 45e8 f6f2

tfl.pseudo_qconst7 i1 [64, 1, 1, 64]
-11 19 101 -33 6 127 12 -51
40 21 -66 -32 66 -45 26 -97
-19 -13 70 51 3 -6 124 52
121 5 31 21 -39 61 -36 -5
-19 -54 77 68 -46 -89 -19 67
34 33 57 -25 1 -77 -57 43
-24 89 -40 -126 -42 -41 -125 -2
11 5 1 2 41 49 -101 -121
-15 -61 54 13 67 38 34 110
27 49 -26 123 83 73 95 -96
-64 -47 49 52 20 44 14 2
85 31 -73 -17 41 -104 -78 -8
24 127 93 -5 39 -96 -4 39
19 31 -4 38 0 -77 -96 -13
-94 8 -61 -17 5 10 15 53
16 58 -62 29 14 35 73 59
-52 83 -27 24 -62 4 4 -1
-48 50 30 44 -53 6 43 -10
83 -52 49 10 57 48 22 -27
-5 63 25 0 -87 -54 57 44
49 -38 -63 65 -32 -127 -7 12
-57 59 58 1 -24 26 23 -59
8 46 -67 49 -99 69 -6 -54
55 36 -36 -51 -16 -26 -38 -2
111 47 24 127 33 93 -11 65
71 -29 -16 -17 36 -6 3 -44
-64 40 34 -74 82 -43 -8 3
4 -3 16 28 22 -33 74 -21
29 10 -48 -86 -23 -4 -2 86
-34 -11 21 46 -9 -32 -19 27
-18 -46 -43 -36 -14 -30 25 62
-46 -53 33 -43 -41 16 60 42
00000000: f513 65df 067f 0ccd 2815 bee0 42d3 1a9f
00000010: edf3 4633 03fa 7c34 7905 1f15 d93d dcfb
00000020: edca 4d44 d2a7 ed43 2221 39e7 01b3 c72b
00000030: e859 d882 d6d7 83fe 0b05 0102 2931 9b87
00000040: f1c3 360d 4326 226e 1b31 e67b 5349 5fa0
00000050: c0d1 3134 142c 0e02 551f b7ef 2998 b2f8
00000060: 187f 5dfb 27a0 fc27 131f fc26 00b3 a0f3
00000070: a208 c3ef 050a 0f35 103a c21d 0e23 493b
00000080: cc53 e518 c204 04ff d032 1e2c cb06 2bf6
00000090: 53cc 310a 3930 16e5 fb3f 1900 a9ca 392c
000000a0: 31da c141 e081 f90c c73b 3a01 e81a 17c5
000000b0: 082e bd31 9d45 faca 3724 dccd f0e6 dafe
000000c0: 6f2f 187f 215d f541 47e3 f0ef 24fa 03d4
000000d0: c028 22b6 52d5 f803 04fd 101c 16df 4aeb
000000e0: 1d0a d0aa e9fc fe56 def5 152e f7e0 ed1b
000000f0: eed2 d5dc f2e2 193e d2cb 21d5 d710 3c2a

tfl.pseudo_qconst9 i1 [1, 15, 1, 32]
-127 95 17 -19 -127 -77 -127 -93
127 127 -104 -41 127 24 -108 42
-27 5 -40 18 127 -127 85 -45
-127 127 -21 127 127 -117 64 -127
-44 70 4 -54 -57 -53 -100 -59
40 53 -127 -25 39 -11 -104 127
-13 17 -18 99 72 -15 35 -113
-26 84 44 58 94 -127 8 -106
-32 71 -6 -34 -25 -66 -77 -55
25 -37 -67 0 -2 -26 -108 96
4 -11 -10 73 5 5 65 -39
-21 25 66 35 -12 -72 64 -61
-21 41 28 -60 -36 -63 -35 -65
64 5 -108 22 48 7 -62 39
28 -51 30 -90 16 -29 102 -68
-13 26 36 41 21 -53 86 -101
22 -49 6 -121 -22 -58 10 -67
15 -16 -64 -6 0 34 3 100
43 -97 -22 -55 -8 -14 101 -127
3 0 -8 15 13 -30 -2 -82
11 13 -16 -65 13 -122 -1 -54
32 42 -60 47 14 41 -8 57
4 -88 45 -47 37 -20 116 -112
-4 52 6 37 53 -29 -13 5
45 -4 33 -78 -11 -61 -8 -103
47 35 -41 -9 12 67 -58 89
34 -56 39 18 19 20 109 -65
-13 69 1 30 4 18 28 103
15 6 34 -45 11 -22 -47 -101
5 56 67 -12 -4 68 32 96
-11 -43 9 -31 45 18 64 -61
12 62 44 4 -16 -30 38 89
00000000: 815f 11ed 81b3 81a3 7f7f 98d7 7f18 942a
00000010: e505 d812 7f81 55d3 817f eb7f 7f8b 4081
00000020: d446 04ca c7cb 9cc5 2835 81e7 27f5 987f
00000030: f311 ee63 48f1 238f e654 2c3a 5e81 0896
00000040: e047 fade e7be b3c9 19db bd00 fee6 9460
00000050: 04f5 f649 0505 41d9 eb19 4223 f4b8 40c3
00000060: eb29 1cc4 dcc1 ddbf 4005 9416 3007 c227
00000070: 1ccd 1ea6 10e3 66bc f31a 2429 15cb 569b
00000080: 16cf 0687 eac6 0abd 0ff0 c0fa 0022 0364
00000090: 2b9f eac9 f8f2 6581 0300 f80f 0de2 feae
000000a0: 0b0d f0bf 0d86 ffca 202a c42f 0e29 f839
000000b0: 04a8 2dd1 25ec 7490 fc34 0625 35e3 f305
000000c0: 2dfc 21b2 f5c3 f899 2f23 d7f7 0c43 c659
000000d0: 22c8 2712 1314 6dbf f345 011e 0412 1c67
000000e0: 0f06 22d3 0bea d19b 0538 43f4 fc44 2060
000000f0: f5d5 09e1 2d12 40c3 0c3e 2c04 f0e2 2659

tfl.pseudo_qconst11 i1 [1, 9, 1, 32]
43 -28 2 31 69 -25 -22 101
-56 -104 2 10 124 25 94 66
-103 91 24 127 -22 -127 -21 71
9 -62 96 17 -114 105 -11 -73
65 13 20 46 1 -55 17 45
-78 10 -53 -2 73 -31 82 61
-62 81 -20 106 -15 -92 -38 72
-17 0 -13 -23 -123 41 -29 35
86 -9 -26 40 -34 -82 5 55
-29 -3 1 -19 97 34 -60 52
-127 -42 -22 66 -47 -64 13 18
21 -56 10 -34 -127 34 -40 -127
43 6 -16 86 -88 -79 -7 54
-127 -51 4 -1 82 -14 -32 39
-123 -13 22 -12 31 11 -45 107
0 -101 64 12 3 -64 -45 -49
-16 16 -4 88 -82 -111 -1 0
-81 -86 12 -18 47 52 -73 70
-23 -37 -34 -31 38 53 -15 127
25 -116 5 110 36 -114 -31 -25
62 -1 7 127 -49 -55 25 -32
-99 87 -96 12 2 -30 -53 28
-64 -6 13 -8 45 109 -11 44
-3 -41 -12 119 78 -127 7 40
71 60 -24 122 -58 -127 4 1
-93 -14 -48 8 -28 -34 -16 67
-78 -73 -2 36 56 81 -45 28
-32 94 111 -8 83 -78 -6 30
43 88 -25 100 63 -84 14 -54
-85 -35 -76 12 -127 -48 -97 15
-53 -100 -23 -56 97 114 -66 -6
-85 127 83 -57 -10 8 -36 104
00000000: 2be4 021f 45e7 ea65 c898 020a 7c19 5e42
00000010: 995b 187f ea81 eb47 09c2 6011 8e69 f5b7
00000020: 410d 142e 01c9 112d b20a cbfe 49e1 523d
00000030: c251 ec6a f1a4 da48 ef00 f3e9 8529 e323
00000040: 56f7 e628 deae 0537 e3fd 01ed 6122 c434
00000050: 81d6 ea42 d1c0 0d12 15c8 0ade 8122 d881
00000060: 2b06 f056 a8b1 f936 81cd 04ff 52f2 e027
00000070: 85f3 16f4 1f0b d36b 009b 400c 03c0 d3cf
00000080: f010 fc58 ae91 ff00 afaa 0cee 2f34 b746
00000090: e9db dee1 2635 f17f 198c 056e 248e e1e7
000000a0: 3eff 077f cfc9 19e0 9d57 a00c 02e2 cb1c
000000b0: c0fa 0df8 2d6d f52c fdd7 f477 4e81 0728
000000c0: 473c e87a c681 0401 a3f2 d008 e4de f043
000000d0: b2b7 fe24 3851 d31c e05e 6ff8 53b2 fa1e
000000e0: 2b58 e764 3fac 0eca abdd b40c 81d0 9f0f
000000f0: cb9c e9c8 6172 befa ab7f 53c7 f608 dc68

tfl.pseudo_qconst13 i1 [64, 1, 1, 64]
-94 4 -47 -27 79 -86 -21 -25
7 35 16 92 90 12 -5 -31
-29 57 0 107 44 -59 -28 -12
-78 -22 -5 23 51 78 -43 -53
-64 20 -1 -43 28 28 78 -20
-98 1 31 66 -102 -21 5 -27
52 -32 80 -79 127 62 70 -71
-12 -118 -1 -2 37 -35 -70 32
-62 12 -17 33 74 -45 8 59
0 -37 12 30 24 29 -11 -15
31 28 26 -46 -75 -6 57 23
-23 -35 13 -127 -27 40 -46 44
-19 29 -15 -48 -33 -8 24 -86
-28 27 -59 -48 -39 -36 -20 -11
66 -21 -55 -65 -43 -11 -31 15
-8 -21 -50 -15 -21 -35 51 16
15 -119 5 -17 6 18 -16 57
-102 14 69 22 -1 40 -49 4
-54 -86 -7 -5 -60 -127 8 -17
-9 24 -76 9 -49 -12 -18 -32
40 109 -70 88 7 -9 -33 11
20 4 -5 -65 -18 -13 45 50
15 -36 -90 -2 -9 -89 -23 -14
14 -26 8 -5 -2 62 60 -38
-127 -11 -18 16 86 -4 -72 -51
37 50 59 13 10 1 20 2
16 87 19 76 -44 -25 38 35
26 10 -22 -11 -2 69 29 -67
-22 -11 -12 -13 -59 11 -32 18
16 40 -12 -43 -34 -51 -43 -58
5 -37 -19 -52 44 23 -40 -16
-6 -6 22 -37 4 -50 -75 -18
00000000: a204 d1e5 4faa ebe7 0723 105c 5a0c fbe1
00000010: e339 006b 2cc5 e4f4 b2ea fb17 334e d5cb
00000020: c014 ffd5 1c1c 4eec 9e01 1f42 9aeb 05e5
00000030: 34e0 50b1 7f3e 46b9 f48a fffe 25dd ba20
00000040: c20c ef21 4ad3 083b 00db 0c1e 181d f5f1
00000050: 1f1c 1ad2 b5fa 3917 e9dd 0d81 e528 d22c
00000060: ed1d f1d0 dff8 18aa e41b c5d0 d9dc ecf5
00000070: 42eb c9bf d5f5 e10f f8eb cef1 ebdd 3310
00000080: 0f89 05ef 0612 f039 9a0e 4516 ff28 cf04
00000090: caaa f9fb c481 08ef f718 b409 cff4 eee0
000000a0: 286d ba58 07f7 df0b 1404 fbbf eef3 2d32
000000b0: 0fdc a6fe f7a7 e9f2 0ee6 08fb fe3e 3cda
000000c0: 81f5 ee10 56fc b8cd 2532 3b0d 0a01 1402
000000d0: 1057 134c d4e7 2623 1a0a eaf5 fe45 1dbd
000000e0: eaf5 f4f3 c50b e012 1028 f4d5 decd d5c6
000000f0: 05db edcc 2c17 d8f0 fafa 16db 04ce b5ee

tfl.pseudo_qconst15 i1 [1, 11, 1, 32]
89 -85 69 -108 -82 70 -127 -102
-64 127 -127 -68 -29 -16 72 -127
53 34 105 -123 -127 117 -66 -123
-29 -127 -127 -127 60 68 -17 75
117 -83 45 5 3 84 -110 -127
-92 94 -38 -40 -5 8 79 -100
54 40 52 -127 -13 39 -27 -58
65 -67 -80 -67 77 36 -35 85
127 -51 -7 -29 -78 -9 -37 -31
-64 76 -20 -11 -70 2 -26 -69
127 83 61 -110 -2 54 -51 62
124 25 38 -67 87 5 18 53
104 -83 17 -11 -105 103 -57 61
-41 -3 -3 -49 7 50 29 -19
23 13 48 -75 -40 48 -104 9
127 38 48 -4 -3 -58 89 40
-50 50 -75 5 -122 127 28 96
127 42 0 75 26 39 15 39
-44 -34 53 -48 -19 60 -127 -93
-11 26 87 48 43 -48 127 23
106 -1 -52 18 -97 29 32 86
68 11 7 121 -38 82 -51 49
-58 -57 83 25 -70 13 -119 -45
-27 36 47 99 0 10 62 -46
120 127 -39 -83 67 93 49 6
31 49 36 114 127 98 -25 -49
-107 30 62 30 -22 20 -12 70
-11 -13 -19 122 -104 -2 -35 -52
116 62 51 -126 80 -46 43 10
-65 3 29 14 94 95 -93 31
-32 108 62 108 37 -7 -34 109
-74 -51 -32 31 -127 -33 -55 3
00000000: 59ab 4594 ae46 819a c07f 81bc e3f0 4881
00000010: 3522 6985 8175 be85 e381 8181 3c44 ef4b
00000020: 75ad 2d05 0354 9281 a45e dad8 fb08 4f9c
00000030: 3628 3481 f327 e5c6 41bd b0bd 4d24 dd55
00000040: 7fcd f9e3 b2f7 dbe1 c04c ecf5 ba02 e6bb
00000050: 7f53 3d92 fe36 cd3e 7c19 26bd 5705 1235
00000060: 68ad 11f5 9767 c73d d7fd fdcf 0732 1ded
00000070: 170d 30b5 d830 9809 7f26 30fc fdc6 5928
00000080: ce32 b505 867f 1c60 7f2a 004b 1a27 0f27
00000090: d4de 35d0 ed3c 81a3 f51a 5730 2bd0 7f17
000000a0: 6aff cc12 9f1d 2056 440b 0779 da52 cd31
000000b0: c6c7 5319 ba0d 89d3 e524 2f63 000a 3ed2
000000c0: 787f d9ad 435d 3106 1f31 2472 7f62 e7cf
000000d0: 951e 3e1e ea14 f446 f5f3 ed7a 98fe ddcc
000000e0: 743e 3382 50d2 2b0a bf03 1d0e 5e5f a31f
000000f0: e06c 3e6c 25f9 de6d b6cd e01f 81df c903

tfl.pseudo_qconst17 i1 [1, 7, 1, 32]
-127 -16 106 127 76 -55 28 127
64 127 81 -26 -55 8 127 -127
13 -4 -93 127 104 -4 72 -122
25 -127 -127 -22 113 -26 127 -18
-94 -16 48 105 121 -40 -37 101
18 110 -24 -114 48 -67 -23 -110
19 25 52 115 104 -4 39 114
-82 21 -113 127 89 -124 42 -37
-74 19 -9 18 115 14 -65 81
-2 17 -127 -125 76 -31 -65 -72
-13 48 127 86 127 -42 127 110
-88 26 -19 115 17 -80 -5 -37
-23 -7 -31 3 127 86 -127 -6
11 14 -91 -127 125 2 -9 -60
-71 2 112 -28 34 -26 38 127
-11 83 111 -43 -16 42 22 -32
-30 -37 -8 46 59 -11 -7 -3
23 -57 1 7 95 -60 14 -30
-12 61 71 -90 -20 -31 19 107
14 36 50 -45 -15 68 28 42
21 -41 -127 -54 35 -49 -21 -56
50 -47 43 28 127 -115 62 -40
2 49 -62 -36 65 -8 -62 27
87 71 -47 -26 -64 81 -60 26
3 -127 -110 -53 16 -127 -37 14
127 -11 -121 53 67 -127 27 -5
127 127 -98 32 42 127 -64 42
127 18 62 -73 -127 127 -76 127
00000000: 81f0 6a7f 4cc9 1c7f 407f 51e6 c908 7f81
00000010: 0dfc a37f 68fc 4886 1981 81ea 71e6 7fee
00000020: a2f0 3069 79d8 db65 126e e88e 30bd e992
00000030: 1319 3473 68fc 2772 ae15 8f7f 5984 2adb
00000040: b613 f712 730e bf51 fe11 8183 4ce1 bfb8
00000050: f330 7f56 7fd6 7f6e a81a ed73 11b0 fbdb
00000060: e9f9 e103 7f56 81fa 0b0e a581 7d02 f7c4
00000070: b902 70e4 22e6 267f f553 6fd5 f02a 16e0
00000080: e2db f82e 3bf5 f9fd 17c7 0107 5fc4 0ee2
00000090: f43d 47a6 ece1 136b 0e24 32d3 f144 1c2a
000000a0: 15d7 81ca 23cf ebc8 32d1 2b1c 7f8d 3ed8
000000b0: 0231 c2dc 41f8 c21b 5747 d1e6 c051 c41a
000000c0: 0381 92cb 1081 db0e 7ff5 8735 4381 1bfb
000000d0: 7f7f 9e20 2a7f c02a 7f12 3eb7 817f b47f

tfl.pseudo_qconst19 i1 [64, 1, 1, 32]
22 17 18 -46 -32 -64 25 -32
20 -32 -7 17 -2 -5 -5 -48
-4 -32 -17 7 -18 -21 7 88
-12 -127 -16 2 -25 12 -5 9
-9 -7 5 -18 -15 21 32 -19
-35 -2 127 -33 -33 -3 17 -14
-8 -22 -108 3 -13 -14 3 -2
-6 17 15 4 -6 -6 -7 19
-28 50 42 -58 -23 0 64 63
40 -14 -40 -121 25 28 -73 113
-127 65 -118 -97 51 64 -89 -103
19 12 -52 77 27 73 -26 59
-79 24 5 -36 -35 104 53 32
-107 -3 -7 73 47 -35 92 41
-19 -102 -75 -23 -52 -35 22 -49
26 -80 -127 34 -112 76 -108 40
90 11 -11 -28 -87 -64 41 -127
16 9 25 -39 9 -8 37 -48
-46 -4 10 7 -13 47 25 31
-12 -13 44 -9 42 -63 -2 -88
-55 22 7 -66 29 29 -53 0
-87 -62 22 -127 56 34 46 -15
-80 36 -19 84 -2 7 -83 9
-51 -45 25 -15 17 -71 -48 -19
-27 -23 30 41 -81 4 -79 14
14 -16 -38 54 89 -42 93 8
-54 75 4 -127 49 54 89 119
16 -41 28 0 -16 -58 88 -91
-7 -10 -2 26 -38 20 -33 9
8 118 -7 0 18 0 -9 52
-1 -37 37 -127 -35 -43 18 59
6 -2 17 57 4 11 3 36
00000000: 1611 12d2 e0c0 19e0 14e0 f911 fefb fbd0
00000010: fce0 ef07 eeeb 0758 f481 f002 e70c fb09
00000020: f7f9 05ee f115 20ed ddfe 7fdf dffd 11f2
00000030: f8ea 9403 f3f2 03fe fa11 0f04 fafa f913
00000040: e432 2ac6 e900 403f 28f2 d887 191c b771
00000050: 8141 8a9f 3340 a799 130c cc4d 1b49 e63b
00000060: b118 05dc dd68 3520 95fd f949 2fdd 5c29
00000070: ed9a b5e9 ccdd 16cf 1ab0 8122 904c 9428
00000080: 5a0b f5e4 a9c0 2981 1009 19d9 09f8 25d0
00000090: d2fc 0a07 f32f 191f f4f3 2cf7 2ac1 fea8
000000a0: c916 07be 1d1d cb00 a9c2 1681 3822 2ef1
000000b0: b024 ed54 fe07 ad09 cdd3 19f1 11b9 d0ed
000000c0: e5e9 1e29 af04 b10e 0ef0 da36 59d6 5d08
000000d0: ca4b 0481 3136 5977 10d7 1c00 f0c6 58a5
000000e0: f9f6 fe1a da14 df09 0876 f900 1200 f734
000000f0: ffdb 2581 ddd5 123b 06fe 1139 040b 0324

tfl.pseudo_qconst21 i1 [1, 5, 1, 32]
-79 -3 127 43 38 84 -19 97
-127 -62 75 -32 -127 62 -107 35
-27 -23 6 27 -112 -102 -38 -70
91 65 -127 -127 -127 127 46 84
-127 57 108 31 127 104 -127 80
-39 -117 -95 6 -40 127 -127 22
-39 6 -14 127 -103 -127 -127 -102
108 -4 -52 -31 -81 96 88 127
3 -79 113 98 4 127 -59 127
-85 13 -63 15 76 -50 59 127
113 127 20 -55 88 -71 19 -99
62 68 -29 -92 2 14 103 58
-5 -93 50 20 39 41 79 64
69 127 -95 -77 12 43 118 111
-17 3 62 -68 127 -66 98 -127
-57 127 9 3 -25 -65 -76 18
25 127 39 -127 42 59 46 -91
79 67 -127 -127 -60 -124 -25 -97
127 -63 127 -5 95 21 11 2
-127 101 -90 -87 -31 -71 -127 20
00000000: b1fd 7f2b 2654 ed61 81c2 4be0 813e 9523
00000010: e5e9 061b 909a daba 5b41 8181 817f 2e54
00000020: 8139 6c1f 7f68 8150 d98b a106 d87f 8116
00000030: d906 f27f 9981 819a 6cfc cce1 af60 587f
00000040: 03b1 7162 047f c57f ab0d c10f 4cce 3b7f
00000050: 717f 14c9 58b9 139d 3e44 e3a4 020e 673a
00000060: fba3 3214 2729 4f40 457f a1b3 0c2b 766f
00000070: ef03 3ebc 7fbe 6281 c77f 0903 e7bf b412
00000080: 197f 2781 2a3b 2ea5 4f43 8181 c484 e79f
00000090: 7fc1 7ffb 5f15 0b02 8165 a6a9 e1b9 8114

tfl.pseudo_qconst23 i1 [32, 5, 1, 40]
-82 -42 -44 20 -26 -47 9 9
-16 24 26 -25 -30 17 64 66
-17 -28 -99 -80 4 -44 16 3
62 -26 26 55 102 55 -22 -80
-32 -10 84 114 108 8 -10 -82
-77 -52 -54 10 -24 -35 -29 13
-16 18 -14 -25 -6 59 46 64
29 -56 -90 -82 -88 -92 -16 -23
26 -5 -38 79 107 81 -35 -79
6 37 21 115 64 13 -90 -50
-15 -21 -33 -14 -39 -21 -25 40
35 27 -5 -46 12 41 40 58
11 -39 -34 -92 -58 -20 -66 -80
40 29 -39 56 66 46 -45 -51
-36 26 -2 21 59 -80 -94 -75
-37 -96 23 -39 12 -6 -11 32
46 42 1 -37 -3 21 44 59
33 17 -60 -28 -127 -87 -121 -70
43 14 -71 38 62 20 -19 -52
-66 -8 -25 64 -36 -6 -112 -104
-32 -105 -27 21 -34 6 -3 16
18 25 -31 -10 37 -2 10 49
22 49 -27 91 -82 -52 -70 -66
18 -79 -18 -3 16 56 4 -55
-66 -11 -34 24 -7 -79 -13 -94
68 17 1 67 46 46 51 42
35 5 -17 23 27 34 1 10
-3 0 -3 20 -10 25 47 41
74 70 85 44 36 60 51 44
56 34 41 9 41 3 69 96
39 7 14 37 41 18 55 16
-21 -30 -4 7 3 32 39 -8
00000000: aed6 d414 e6d1 0909 f018 1ae7 e211 4042
00000010: efe4 9db0 04d4 1003 3ee6 1a37 6637 eab0
00000020: e0f6 5472 6c08 f6ae b3cc ca0a e8dd e30d
00000030: f012 f2e7 fa3b 2e40 1dc8 a6ae a8a4 f0e9
00000040: 1afb da4f 6b51 ddb1 0625 1573 400d a6ce
00000050: f1eb dff2 d9eb e728 231b fbd2 0c29 283a
00000060: 0bd9 dea4 c6ec beb0 281d d938 422e d3cd
00000070: dc1a fe15 3bb0 a2b5 dba0 17d9 0cfa f520
00000080: 2e2a 01db fd15 2c3b 2111 c4e4 81a9 87ba
00000090: 2b0e b926 3e14 edcc bef8 e740 dcfa 9098
000000a0: e097 e515 de06 fd10 1219 e1f6 25fe 0a31
000000b0: 1631 e55b aecc babe 12b1 eefd 1038 04c9
000000c0: bef5 de18 f9b1 f3a2 4411 0143 2e2e 332a
000000d0: 2305 ef17 1b22 010a fd00 fd14 f619 2f29
000000e0: 4a46 552c 243c 332c 3822 2909 2903 4560
000000f0: 2707 0e25 2912 3710 ebe2 fc07 0320 27f8

tfl.pseudo_qconst24 i1 [1, 22, 1, 64] scale=0.05570083 zero_point=-128
0.0 0.0 0.0 0.0 0.0 0.0 0.0 0.0
0.0 0.0 0.0 0.0 0.0 0.0 0.0 0.0
0.0 0.0 0.0 0.0 0.0 0.0 0.0 0.0
0.0 0.0 0.0 0.0 0.0 0.0 0.0 0.0
0.0 0.0 0.0 0.0 0.0 0.0 0.0 0.0
0.0 0.0 0.0 0.0 0.0 0.0 0.0 0.0
0.0 0.0 0.0 0.0 0.0 0.0 0.0 0.0
0.0 0.0 0.0 0.0 0.0 0.0 0.0 0.0
0.0 0.0 0.0 0.0 0.0 0.0 0.0 0.0
0.0 0.0 0.0 0.0 0.0 0.0 0.0 0.0
0.0 0.0 0.0 0.0 0.0 0.0 0.0 0.0
0.0 0.0 0.0 0.0 0.0 0.0 0.0 0.0
0.0 0.0 0.0 0.0 0.0 0.0 0.0 0.0
0.0 0.0 0.0 0.0 0.0 0.0 0.0 0.0
0.0 0.0 0.0 0.0 0.0 0.0 0.0 0.0
0.0 0.0 0.0 0.0 0.0 0.0 0.0 0.0
0.0 0.0 0.0 0.0 0.0 0.0 0.0 0.0
0.0 0.0 0.0 0.0 0.0 0.0 0.0 0.0
0.0 0.0 0.0 0.0 0.0 0.0 0.0 0.0
0.0 0.0 0.0 0.0 0.0 0.0 0.0 0.0
0.0 0.0 0.0 0.0 0.0 0.0 0.0 0.0
0.0 0.0 0.0 0.0 0.0 0.0 0.0 0.0
0.0 0.0 0.0 0.0 0.0 0.0 0.0 0.0
0.0 0.0 0.0 0.0 0.0 0.0 0.0 0.0
0.0 0.0 0.0 0.0 0.0 0.0 0.0 0.0
0.0 0.0 0.0 0.0 0.0 0.0 0.0 0.0
0.0 0.0 0.0 0.0 0.0 0.0 0.0 0.0
0.0 0.0 0.0 0.0 0.0 0.0 0.0 0.0
0.0 0.0 0.0 0.0 0.0 0.0 0.0 0.0
0.0 0.0 0.0 0.0 0.0 0.0 0.0 0.0
0.0 0.0 0.0 0.0 0.0 0.0 0.0 0.0
0.0 0.0 0.0 0.0 0.0 0.0 0.0 0.0
00000000: 8080 8080 8080 8080 8080 8080 8080 8080
00000010: 8080 8080 8080 8080 8080 8080 8080 8080
00000020: 8080 8080 8080 8080 8080 8080 8080 8080
00000030: 8080 8080 8080 8080 8080 8080 8080 8080
00000040: 8080 8080 8080 8080 8080 8080 8080 8080
00000050: 8080 8080 8080 8080 8080 8080 8080 8080
00000060: 8080 8080 8080 8080 8080 8080 8080 8080
00000070: 8080 8080 8080 8080 8080 8080 8080 8080
00000080: 8080 8080 8080 8080 8080 8080 8080 8080
00000090: 8080 8080 8080 8080 8080 8080 8080 8080
000000a0: 8080 8080 8080 8080 8080 8080 8080 8080
000000b0: 8080 8080 8080 8080 8080 8080 8080 8080
000000c0: 8080 8080 8080 8080 8080 8080 8080 8080
000000d0: 8080 8080 8080 8080 8080 8080 8080 8080
000000e0: 8080 8080 8080 8080 8080 8080 8080 8080
000000f0: 8080 8080 8080 8080 8080 8080 8080 8080

tfl.pseudo_qconst25 i1 [1, 36, 1, 64] scale=0.031936917 zero_point=-128
0.0 0.0 0.0 0.0 0.0 0.0 0.0 0.0
0.0 0.0 0.0 0.0 0.0 0.0 0.0 0.0
0.0 0.0 0.0 0.0 0.0 0.0 0.0 0.0
0.0 0.0 0.0 0.0 0.0 0.0 0.0 0.0
0.0 0.0 0.0 0.0 0.0 0.0 0.0 0.0
0.0 0.0 0.0 0.0 0.0 0.0 0.0 0.0
0.0 0.0 0.0 0.0 0.0 0.0 0.0 0.0
0.0 0.0 0.0 0.0 0.0 0.0 0.0 0.0
0.0 0.0 0.0 0.0 0.0 0.0 0.0 0.0
0.0 0.0 0.0 0.0 0.0 0.0 0.0 0.0
0.0 0.0 0.0 0.0 0.0 0.0 0.0 0.0
0.0 0.0 0.0 0.0 0.0 0.0 0.0 0.0
0.0 0.0 0.0 0.0 0.0 0.0 0.0 0.0
0.0 0.0 0.0 0.0 0.0 0.0 0.0 0.0
0.0 0.0 0.0 0.0 0.0 0.0 0.0 0.0
0.0 0.0 0.0 0.0 0.0 0.0 0.0 0.0
0.0 0.0 0.0 0.0 0.0 0.0 0.0 0.0
0.0 0.0 0.0 0.0 0.0 0.0 0.0 0.0
0.0 0.0 0.0 0.0 0.0 0.0 0.0 0.0
0.0 0.0 0.0 0.0 0.0 0.0 0.0 0.0
0.0 0.0 0.0 0.0 0.0 0.0 0.0 0.0
0.0 0.0 0.0 0.0 0.0 0.0 0.0 0.0
0.0 0.0 0.0 0.0 0.0 0.0 0.0 0.0
0.0 0.0 0.0 0.0 0.0 0.0 0.0 0.0
0.0 0.0 0.0 0.0 0.0 0.0 0.0 0.0
0.0 0.0 0.0 0.0 0.0 0.0 0.0 0.0
0.0 0.0 0.0 0.0 0.0 0.0 0.0 0.0
0.0 0.0 0.0 0.0 0.0 0.0 0.0 0.0
0.0 0.0 0.0 0.0 0.0 0.0 0.0 0.0
0.0 0.0 0.0 0.0 0.0 0.0 0.0 0.0
0.0 0.0 0.0 0.0 0.0 0.0 0.0 0.0
0.0 0.0 0.0 0.0 0.0 0.0 0.0 0.0
00000000: 8080 8080 8080 8080 8080 8080 8080 8080
00000010: 8080 8080 8080 8080 8080 8080 8080 8080
00000020: 8080 8080 8080 8080 8080 8080 8080 8080
00000030: 8080 8080 8080 8080 8080 8080 8080 8080
00000040: 8080 8080 8080 8080 8080 8080 8080 8080
00000050: 8080 8080 8080 8080 8080 8080 8080 8080
00000060: 8080 8080 8080 8080 8080 8080 8080 8080
00000070: 8080 8080 8080 8080 8080 8080 8080 8080
00000080: 8080 8080 8080 8080 8080 8080 8080 8080
00000090: 8080 8080 8080 8080 8080 8080 8080 8080
000000a0: 8080 8080 8080 8080 8080 8080 8080 8080
000000b0: 8080 8080 8080 8080 8080 8080 8080 8080
000000c0: 8080 8080 8080 8080 8080 8080 8080 8080
000000d0: 8080 8080 8080 8080 8080 8080 8080 8080
000000e0: 8080 8080 8080 8080 8080 8080 8080 8080
000000f0: 8080 8080 8080 8080 8080 8080 8080 8080

tfl.pseudo_qconst26 i1 [1, 3, 1, 40] scale=0.101960786 zero_point=-128
0.0 0.0 0.0 0.0 0.0 0.0 0.0 0.0
0.0 0.0 0.0 0.0 0.0 0.0 0.0 0.0
0.0 0.0 0.0 0.0 0.0 0.0 0.0 0.0
0.0 0.0 0.0 0.0 0.0 0.0 0.0 0.0
0.0 0.0 0.0 0.0 0.0 0.0 0.0 0.0
0.0 0.0 0.0 0.0 0.0 0.0 0.0 0.0
0.0 0.0 0.0 0.0 0.0 0.0 0.0 0.0
0.0 0.0 0.0 0.0 0.0 0.0 0.0 0.0
0.0 0.0 0.0 0.0 0.0 0.0 0.0 0.0
0.0 0.0 0.0 0.0 0.0 0.0 0.0 0.0
0.0 0.0 0.0 0.0 0.0 0.0 0.0 0.0
0.0 0.0 0.0 0.0 0.0 0.0 0.0 0.0
0.0 0.0 0.0 0.0 0.0 0.0 0.0 0.0
0.0 0.0 0.0 0.0 0.0 0.0 0.0 0.0
0.0 0.0 0.0 0.0 0.0 0.0 0.0 0.0
00000000: 8080 8080 8080 8080 8080 8080 8080 8080
00000010: 8080 8080 8080 8080 8080 8080 8080 8080
00000020: 8080 8080 8080 8080 8080 8080 8080 8080
00000030: 8080 8080 8080 8080 8080 8080 8080 8080
00000040: 8080 8080 8080 8080 8080 8080 8080 8080
00000050: 8080 8080 8080 8080 8080 8080 8080 8080
00000060: 8080 8080 8080 8080 8080 8080 8080 8080
00000070: 8080 8080 8080 8080

tfl.pseudo_qconst27 i1 [1, 4, 1, 32] scale=0.7877478 zero_point=-128
0.0 0.0 0.0 0.0 0.0 0.0 0.0 0.0
0.0 0.0 0.0 0.0 0.0 0.0 0.0 0.0
0.0 0.0 0.0 0.0 0.0 0.0 0.0 0.0
0.0 0.0 0.0 0.0 0.0 0.0 0.0 0.0
0.0 0.0 0.0 0.0 0.0 0.0 0.0 0.0
0.0 0.0 0.0 0.0 0.0 0.0 0.0 0.0
0.0 0.0 0.0 0.0 0.0 0.0 0.0 0.0
0.0 0.0 0.0 0.0 0.0 0.0 0.0 0.0
0.0 0.0 0.0 0.0 0.0 0.0 0.0 0.0
0.0 0.0 0.0 0.0 0.0 0.0 0.0 0.0
0.0 0.0 0.0 0.0 0.0 0.0 0.0 0.0
0.0 0.0 0.0 0.0 0.0 0.0 0.0 0.0
0.0 0.0 0.0 0.0 0.0 0.0 0.0 0.0
0.0 0.0 0.0 0.0 0.0 0.0 0.0 0.0
0.0 0.0 0.0 0.0 0.0 0.0 0.0 0.0
0.0 0.0 0.0 0.0 0.0 0.0 0.0 0.0
00000000: 8080 8080 8080 8080 8080 8080 8080 8080
00000010: 8080 8080 8080 8080 8080 8080 8080 8080
00000020: 8080 8080 8080 8080 8080 8080 8080 8080
00000030: 8080 8080 8080 8080 8080 8080 8080 8080
00000040: 8080 8080 8080 8080 8080 8080 8080 8080
00000050: 8080 8080 8080 8080 8080 8080 8080 8080
00000060: 8080 8080 8080 8080 8080 8080 8080 8080
00000070: 8080 8080 8080 8080 8080 8080 8080 8080

tfl.pseudo_qconst28 i1 [1, 10, 1, 64] scale=0.049118526 zero_point=-128
0.0 0.0 0.0 0.0 0.0 0.0 0.0 0.0
0.0 0.0 0.0 0.0 0.0 0.0 0.0 0.0
0.0 0.0 0.0 0.0 0.0 0.0 0.0 0.0
0.0 0.0 0.0 0.0 0.0 0.0 0.0 0.0
0.0 0.0 0.0 0.0 0.0 0.0 0.0 0.0
0.0 0.0 0.0 0.0 0.0 0.0 0.0 0.0
0.0 0.0 0.0 0.0 0.0 0.0 0.0 0.0
0.0 0.0 0.0 0.0 0.0 0.0 0.0 0.0
0.0 0.0 0.0 0.0 0.0 0.0 0.0 0.0
0.0 0.0 0.0 0.0 0.0 0.0 0.0 0.0
0.0 0.0 0.0 0.0 0.0 0.0 0.0 0.0
0.0 0.0 0.0 0.0 0.0 0.0 0.0 0.0
0.0 0.0 0.0 0.0 0.0 0.0 0.0 0.0
0.0 0.0 0.0 0.0 0.0 0.0 0.0 0.0
0.0 0.0 0.0 0.0 0.0 0.0 0.0 0.0
0.0 0.0 0.0 0.0 0.0 0.0 0.0 0.0
0.0 0.0 0.0 0.0 0.0 0.0 0.0 0.0
0.0 0.0 0.0 0.0 0.0 0.0 0.0 0.0
0.0 0.0 0.0 0.0 0.0 0.0 0.0 0.0
0.0 0.0 0.0 0.0 0.0 0.0 0.0 0.0
0.0 0.0 0.0 0.0 0.0 0.0 0.0 0.0
0.0 0.0 0.0 0.0 0.0 0.0 0.0 0.0
0.0 0.0 0.0 0.0 0.0 0.0 0.0 0.0
0.0 0.0 0.0 0.0 0.0 0.0 0.0 0.0
0.0 0.0 0.0 0.0 0.0 0.0 0.0 0.0
0.0 0.0 0.0 0.0 0.0 0.0 0.0 0.0
0.0 0.0 0.0 0.0 0.0 0.0 0.0 0.0
0.0 0.0 0.0 0.0 0.0 0.0 0.0 0.0
0.0 0.0 0.0 0.0 0.0 0.0 0.0 0.0
0.0 0.0 0.0 0.0 0.0 0.0 0.0 0.0
0.0 0.0 0.0 0.0 0.0 0.0 0.0 0.0
0.0 0.0 0.0 0.0 0.0 0.0 0.0 0.0
00000000: 8080 8080 8080 8080 8080 8080 8080 8080
00000010: 8080 8080 8080 8080 8080 8080 8080 8080
00000020: 8080 8080 8080 8080 8080 8080 8080 8080
00000030: 8080 8080 8080 8080 8080 8080 8080 8080
00000040: 8080 8080 8080 8080 8080 8080 8080 8080
00000050: 8080 8080 8080 8080 8080 8080 8080 8080
00000060: 8080 8080 8080 8080 8080 8080 8080 8080
00000070: 8080 8080 8080 8080 8080 8080 8080 8080
00000080: 8080 8080 8080 8080 8080 8080 8080 8080
00000090: 8080 8080 8080 8080 8080 8080 8080 8080
000000a0: 8080 8080 8080 8080 8080 8080 8080 8080
000000b0: 8080 8080 8080 8080 8080 8080 8080 8080
000000c0: 8080 8080 8080 8080 8080 8080 8080 8080
000000d0: 8080 8080 8080 8080 8080 8080 8080 8080
000000e0: 8080 8080 8080 8080 8080 8080 8080 8080
000000f0: 8080 8080 8080 8080 8080 8080 8080 8080

tfl.pseudo_qconst29 i1 [1, 14, 1, 64] scale=0.043746047 zero_point=-128
0.0 0.0 0.0 0.0 0.0 0.0 0.0 0.0
0.0 0.0 0.0 0.0 0.0 0.0 0.0 0.0
0.0 0.0 0.0 0.0 0.0 0.0 0.0 0.0
0.0 0.0 0.0 0.0 0.0 0.0 0.0 0.0
0.0 0.0 0.0 0.0 0.0 0.0 0.0 0.0
0.0 0.0 0.0 0.0 0.0 0.0 0.0 0.0
0.0 0.0 0.0 0.0 0.0 0.0 0.0 0.0
0.0 0.0 0.0 0.0 0.0 0.0 0.0 0.0
0.0 0.0 0.0 0.0 0.0 0.0 0.0 0.0
0.0 0.0 0.0 0.0 0.0 0.0 0.0 0.0
0.0 0.0 0.0 0.0 0.0 0.0 0.0 0.0
0.0 0.0 0.0 0.0 0.0 0.0 0.0 0.0
0.0 0.0 0.0 0.0 0.0 0.0 0.0 0.0
0.0 0.0 0.0 0.0 0.0 0.0 0.0 0.0
0.0 0.0 0.0 0.0 0.0 0.0 0.0 0.0
0.0 0.0 0.0 0.0 0.0 0.0 0.0 0.0
0.0 0.0 0.0 0.0 0.0 0.0 0.0 0.0
0.0 0.0 0.0 0.0 0.0 0.0 0.0 0.0
0.0 0.0 0.0 0.0 0.0 0.0 0.0 0.0
0.0 0.0 0.0 0.0 0.0 0.0 0.0 0.0
0.0 0.0 0.0 0.0 0.0 0.0 0.0 0.0
0.0 0.0 0.0 0.0 0.0 0.0 0.0 0.0
0.0 0.0 0.0 0.0 0.0 0.0 0.0 0.0
0.0 0.0 0.0 0.0 0.0 0.0 0.0 0.0
0.0 0.0 0.0 0.0 0.0 0.0 0.0 0.0
0.0 0.0 0.0 0.0 0.0 0.0 0.0 0.0
0.0 0.0 0.0 0.0 0.0 0.0 0.0 0.0
0.0 0.0 0.0 0.0 0.0 0.0 0.0 0.0
0.0 0.0 0.0 0.0 0.0 0.0 0.0 0.0
0.0 0.0 0.0 0.0 0.0 0.0 0.0 0.0
0.0 0.0 0.0 0.0 0.0 0.0 0.0 0.0
0.0 0.0 0.0 0.0 0.0 0.0 0.0 0.0
00000000: 8080 8080 8080 8080 8080 8080 8080 8080
00000010: 8080 8080 8080 8080 8080 8080 8080 8080
00000020: 8080 8080 8080 8080 8080 8080 8080 8080
00000030: 8080 8080 8080 8080 8080 8080 8080 8080
00000040: 8080 8080 8080 8080 8080 8080 8080 8080
00000050: 8080 8080 8080 8080 8080 8080 8080 8080
00000060: 8080 8080 8080 8080 8080 8080 8080 8080
00000070: 8080 8080 8080 8080 8080 8080 8080 8080
00000080: 8080 8080 8080 8080 8080 8080 8080 8080
00000090: 8080 8080 8080 8080 8080 8080 8080 8080
000000a0: 8080 8080 8080 8080 8080 8080 8080 8080
000000b0: 8080 8080 8080 8080 8080 8080 8080 8080
000000c0: 8080 8080 8080 8080 8080 8080 8080 8080
000000d0: 8080 8080 8080 8080 8080 8080 8080 8080
000000e0: 8080 8080 8080 8080 8080 8080 8080 8080
000000f0: 8080 8080 8080 8080 8080 8080 8080 8080
